logs/Poisson/12_09/MLP_13_18_30/best_model.pth (torch, 285154 bytes, 27 tensors)

processor.0.weight f4 [128, 3]
000000 57 6a 10 3d d0 28 98 3e 14 e6 fb be 88 d6 e6 be
       0.035257664 0.29718637 -0.49198973 -0.4508555
000010 74 1c 5e be 21 94 23 3e 45 1e f5 bc 58 c6 f1 3e
       -0.21690542 0.15974475 -0.02992166 0.47221637
000020 4c de 28 bd f6 49 52 3e bb b5 12 be 57 d2 c7 bd
       -0.041227624 0.20536026 -0.14327137 -0.09756916
000030 1d 2e 0d bf 96 ba c3 be 44 aa 73 be e9 86 f8 3c
       -0.5514849 -0.3822829 -0.2379542 0.030337768
000040 3c b3 69 3e 2a 3a b3 3e 36 85 ea be 7f 0b 78 be
       0.22822279 0.35005313 -0.45804757 -0.24223135
000050 c2 2b 30 3e 15 b8 e7 3e e6 e9 ad bd e6 76 ee 3e
       0.17204192 0.4525763 -0.08491878 0.46575087
000060 f7 5b 90 bd 9f 1b 88 3d 56 59 04 3f d9 16 09 bf
       -0.07048791 0.06645893 0.51698816 -0.5355049
000070 50 12 ba be a8 a6 15 be ab 24 5a be 98 7a fe 3e
       -0.36342096 -0.14614356 -0.2130305 0.49702907
000080 f4 f4 9c be 2c 81 8d be dd 52 cf be 9f ea 10 bf
       -0.30655634 -0.27637613 -0.40492907 -0.56608003
000090 c5 09 cf be e4 60 f5 3e de 54 71 3e 70 98 87 3e
       -0.4043714 0.47925484 0.2356753 0.26483488
0000a0 3f 2f 8c 3d 7e f8 9f be b1 85 05 3e aa 3c 0b bf
       0.06844949 -0.31244272 0.1303928 -0.5438944
0000b0 9f e0 c3 be 99 8a a2 be 5b 0c b6 3e 3c d7 a8 3e
       -0.3825731 -0.31746367 0.355563 0.3297671
0000c0 3c 50 82 be 8c 04 66 bc 96 5e b1 3e 1c d1 10 3f
       -0.2545184 -0.01403917 0.34642476 0.56569076
0000d0 5b 83 74 3e 49 1c a8 3d 9d 81 cd 3e 37 8c b6 be
       0.23878233 0.0820852 0.4013795 -0.3565385
0000e0 78 60 fb 3d 01 21 06 bf a2 15 c9 be b1 d1 99 be
       0.12274259 -0.5239411 -0.39274317 -0.30042794
0000f0 62 70 91 3e 55 dd 80 3e 5f c5 a0 be 3b 13 b9 3b
       0.28406054 0.25168863 -0.31400582 0.0056480444
000100 6c b5 e3 3e 8f 9d 46 3a bf e4 b8 3c 10 b1 07 3e
       0.4447435 0.00075765786 0.022570012 0.13251138
000110 e4 a3 ba 3e f5 b4 0c 3f e3 5a d9 be b2 4f 45 be
       0.36453164 0.5496362 -0.42452154 -0.19268683
000120 31 d1 78 3e cd 76 f3 3e 28 2b 00 3f 5d 78 03 3f
       0.2429855 0.47551575 0.5006585 0.51355535
000130 6c 3e ba 3d f3 7f 03 bf ba e8 f4 3c a3 ae be be
       0.09093937 -0.5136711 0.029896129 -0.37242612
000140 9c d9 0d bf 01 4d ef 3e cc 41 fb 3e b1 a1 08 bf
       -0.5541017 0.46738437 0.49073637 -0.5337172
000150 5b 87 0b 3e ee 0a 99 bd 6d 80 9c bd 2e b7 8e be
       0.13625853 -0.07472788 -0.07641683 -0.2787413
000160 f1 10 51 3e e9 5d b4 be 76 a8 42 3e 25 28 80 3e
       0.20416619 -0.35227898 0.19009575 0.25030628
000170 fc 67 dc 3e a4 89 75 3e 8c 79 1a bf dc ed a7 be
       0.43048084 0.23978287 -0.60341716 -0.3279866
000180 41 dc 97 3e ec bd 17 3e a7 5f df be 10 a4 bd be
       0.29660228 0.14818543 -0.43627664 -0.37039232
000190 a1 5c 09 3f 7c 45 c5 3e 14 20 77 be c2 6b ce bd
       0.53656965 0.38529575 -0.2413333 -0.10079147
0001a0 17 55 1b bf 55 e4 8f bc 86 03 e1 be ad dc ea be
       -0.6067671 -0.017564932 -0.43948 -0.45871487
0001b0 64 b1 36 bc 3d 95 d6 3d fd b2 74 be 87 b8 7f 3e
       -0.011150692 0.10477684 -0.23896404 0.24972735
0001c0 a4 c8 d2 be 8a 5a 05 3f c8 9e db 3e 1d 5a ec be
       -0.41168702 0.52091277 0.42894578 -0.461625
0001d0 d2 54 6f bd 1c d1 a2 3c 24 d9 b1 3d 54 51 12 3e
       -0.0584305 0.019875102 0.086839944 0.14288837
0001e0 a7 a3 79 3e 4f 21 bb 3c 47 6c 9c be 46 de 79 3e
       0.24378835 0.022843031 -0.3055136 0.24401197
0001f0 4c 21 15 bf 82 63 bb be 86 f9 13 be 69 f8 8f be
       -0.5825393 -0.36599356 -0.14450654 -0.2811921
000200 a6 c7 4e be 2c 3d f2 be 29 79 fb bd 5c b4 fc 3d
       -0.20193347 -0.47312295 -0.12278969 0.12339088
000210 53 ae db be 7b 23 b6 bc be 18 ad 3e e9 6e e8 bd
       -0.42906436 -0.022233715 0.3380794 -0.113492794
000220 a8 94 00 3c 2f b7 43 bd 35 e2 0c 3e a8 3a bd 3e
       0.007847942 -0.04778212 0.13758166 0.36958814
000230 5f 9c 08 3f c4 00 c4 3e 15 6e 08 3f dc 3c 2b bd
       0.53363603 0.38281834 0.5329297 -0.041806087
000240 2b 3f 14 bf 97 14 88 be a5 e7 bc 3e e1 d9 7d 3a
       -0.57908887 -0.2657821 0.3689548 0.00096836506
000250 dd 60 a5 39 68 40 8f bf 6c 4c 0a bf 9c 72 f9 be
       0.0003154342 -1.119153 -0.5402286 -0.48720253
000260 fe ca ef bd 96 44 74 3e fb 42 b6 3e 83 23 15 bf
       -0.117086396 0.23854288 0.35597977 -0.5825731
000270 5b b5 90 3e a4 83 f6 be 95 a9 28 be 97 ac 6f be
       0.28263363 -0.4814731 -0.1647094 -0.23405682
000280 f9 b4 e3 bd 42 1d e8 bd ae 0e 12 bf 66 13 f7 be
       -0.11118502 -0.113337055 -0.5705365 -0.48256987
000290 2a 21 a5 bd 70 9d f4 3b 61 43 86 be c3 a9 5e 3e
       -0.08062966 0.007465057 -0.2622328 0.21744446
0002a0 b4 b3 f4 be 21 45 f9 bc 6b 2f 00 3f 0e 56 89 be
       -0.47793353 -0.030428471 0.50072354 -0.26823467
0002b0 fe 40 08 3f 29 76 fa 3d 18 0f 1d bf fd 21 53 3e
       0.5322417 0.122295685 -0.61351156 0.20618434
0002c0 c9 31 4a bd e3 22 95 be e5 eb e2 3e a9 47 f2 be
       -0.049363885 -0.2912818 0.44320598 -0.47320297
0002d0 0e 3e 09 3b 16 27 24 ba 1b 0e 03 3f b9 fa 27 3e
       0.0020941528 -0.0006261928 0.511934 0.16404237
0002e0 f6 6a 90 3e 45 4c 53 3e f5 25 0e be c0 9f f8 bd
       0.28206605 0.20634563 -0.13881667 -0.12139845
0002f0 a9 8e f3 be fb f9 a1 3e 56 e1 ea 3e 6e c2 c7 3e
       -0.4756978 0.31636032 0.45875043 0.39015526
000300 e8 a8 e1 be b4 ed 4d 3d 88 39 c3 be f7 b3 a2 be
       -0.44074178 0.05027552 -0.3812983 -0.31777927
000310 4b 3a ac be 7c ff 49 3e dc 47 ec be fe 52 a0 bc
       -0.33638224 0.19726366 -0.46148574 -0.019570824
000320 18 a0 c1 3b 42 a8 c0 3e a6 cb ea be 53 fc a9 be
       0.0059089772 0.3762837 -0.45858496 -0.3320032
000330 1c fa c0 be 87 db c2 3e 32 66 57 be 0e 95 00 3f
       -0.37690818 0.3805811 -0.21035078 0.5022744
000340 1c 2b 47 3e c0 96 95 3d 03 cf 8c bb 86 b2 e9 bd
       0.19450039 0.07304144 -0.0042971387 -0.11411004
000350 c4 54 94 3d a6 1d 0b be 3e b7 9f 3a c6 f7 7d 3d
       0.0724273 -0.13585529 0.0012185348 0.062003873
000360 ff 85 0c bf df 7c 95 be 00 42 df 3e 2b cc 00 bf
       -0.5489196 -0.29196832 0.43605042 -0.50311536
000370 4a 67 01 bd 27 87 0b 3f 7e 75 5c 3e d3 65 0a 3e
       -0.031592645 0.545031 0.21529195 0.13515405
000380 e9 1c ff be 07 83 8f 3e 6e df eb be be 96 15 be
       -0.49826744 0.28029653 -0.460689 -0.14608285
000390 c8 50 46 be 1a 14 af bd ad e4 ce 3b ff da f6 3e
       -0.19366753 -0.08548756 0.0063138814 0.48213956
0003a0 8c c0 b0 3d bf fe 01 3f c7 fa b2 3e 97 43 f0 be
       0.086304754 0.50779337 0.34956953 -0.46926567
0003b0 d2 48 67 3e b9 ea d0 be 39 86 7a be 86 dd 2d 3e
       0.22586372 -0.4080408 -0.24465264 0.16979036
0003c0 cb 86 4e 3e bb f8 d9 3e 4d a9 43 be 15 a8 30 bc
       0.20168607 0.4257258 -0.19107552 -0.010782261
0003d0 10 22 85 3e cc e2 11 bf 5d 28 e4 3e d6 67 e8 be
       0.2600255 -0.5698669 0.44562045 -0.4539172
0003e0 a2 9b a0 3c 74 fc c8 bd 10 aa 9b be 42 42 9c 3d
       0.019605462 -0.098137766 -0.30403185 0.07629825
0003f0 f2 86 fb 3e 8f 95 2f be c2 15 b8 be a8 89 59 be
       0.49126393 -0.17146896 -0.359541 -0.21243918

processor.0.bias f4 [128]
000000 e0 14 32 3e 72 0a 11 3f aa a0 21 3e 74 d3 c3 3e
       0.17390776 0.56656563 0.15783945 0.38247263
000010 ae df 4e be 5d 79 87 3e 34 ff e8 3c fa e7 bf bd
       -0.20202515 0.2645978 0.028442003 -0.09370418
000020 c2 db ab be 91 d8 a5 be 6e 09 eb be c2 2f be 3e
       -0.335661 -0.3239179 -0.45905632 0.3714581
000030 50 77 c7 3e dd 03 96 bd 4c e6 92 be b2 f0 f2 3e
       0.38958216 -0.073249556 -0.28691328 0.4744926
000040 f2 81 d6 3e 21 83 78 3d f0 bc 6f be 6f f1 fb 3e
       0.41896015 0.06067193 -0.23411918 0.49207637
000050 ae 3c 6c 3e c6 11 e1 be 75 ca 0e 3f c4 44 e6 3e
       0.23070022 -0.43958873 0.55777675 0.4497434
000060 be 5f 49 be 4f 8e a4 3e d5 e6 b3 be 50 be 96 bd
       -0.19665429 0.32139823 -0.35137048 -0.07360518
000070 43 16 05 3f 34 98 d2 bb 05 3c da be 17 61 c5 bd
       0.51987094 -0.0064268354 -0.42623916 -0.09637659
000080 2d 65 1c be 43 39 f2 bd f5 fd df 3c 5d 3d 06 3f
       -0.1527297 -0.11827328 0.027342776 0.5243738
000090 eb cc 96 3c 62 97 cf be 80 5b c1 3d 43 e1 98 3e
       0.01840826 -0.40545183 0.0944128 0.2985936
0000a0 08 17 85 3e f7 47 0e bf 3c 8a d3 bd ce a1 db be
       0.25994134 -0.5557856 -0.103291005 -0.42896885
0000b0 73 be 7b be 86 b1 33 3e 6e 88 d0 be 73 c3 72 3e
       -0.2458437 0.17548189 -0.40729088 0.2370737
0000c0 9d 9c f4 3e 43 cb 50 3c d7 f8 c4 be 45 bb 5c be
       0.47775736 0.012743774 -0.384711 -0.21555813
0000d0 12 bf 35 3e c0 4c e1 be e1 f1 8e 3e a4 29 06 bf
       0.17748669 -0.44003868 0.27918914 -0.5240729
0000e0 36 a2 13 bf 56 b8 0f bf 4f 61 fe bd 94 a6 cc 3e
       -0.5766939 -0.5614065 -0.12420904 0.3997084
0000f0 0e fd 00 bf 2b 14 00 3f c6 73 6c be a2 77 4f 3e
       -0.5038613 0.50030774 -0.23091039 0.2026048
000100 a3 6f 6f 3c ed 40 05 bf 51 50 c1 3e bb a9 a9 3e
       0.014614019 -0.52052194 0.3775659 0.33137307
000110 70 d0 12 3f ad 82 66 3e 1c 13 c3 be b0 60 ff 3e
       0.573493 0.22510786 -0.38100517 0.49878454
000120 43 62 09 3d 76 56 8c 3e 4f f7 e4 be d3 bf d8 bd
       0.033540975 0.27409714 -0.4471993 -0.105834626
000130 e6 19 11 bf 8e 6e 71 be 58 7f e5 3d 6f 0d e8 be
       -0.5668014 -0.2357733 0.112059295 -0.4532275
000140 d7 e3 3b 3e 7a b1 a5 3e e9 3a c6 3d 44 bd c5 be
       0.18348633 0.32361966 0.09679205 -0.3862096
000150 12 3f d7 be 86 72 35 be c5 0e 78 3e e9 5a 0f 3f
       -0.42040306 -0.17719468 0.24224384 0.5599809
000160 8e d7 aa 3e ac 53 af bd af f2 4e 3e 6e d2 22 bf
       0.3336758 -0.08560881 0.20209764 -0.6360234
000170 a9 59 fc be d0 d6 8d 3e 20 e7 a0 be 11 52 8e 3e
       -0.49287155 0.2770295 -0.31426334 0.27796987
000180 c7 a1 d0 be da a4 88 be f7 70 f3 be 98 f8 86 3e
       -0.40748426 -0.26688272 -0.47547123 0.26361537
000190 8b 55 aa bd 6f 8f e6 3e d8 cc ce 3e 9d 41 98 3e
       -0.08317097 0.45031306 0.40390658 0.2973756
0001a0 5c dd 52 3d dd 02 e2 bd 65 59 fe bd d6 4f 72 3d
       0.051480636 -0.110357024 -0.124193944 0.05915817
0001b0 be 7b 9c 3e 36 99 c9 be d1 b1 ef 3e b9 5d 8c bd
       0.30563158 -0.39374703 0.4681535 -0.06853814
0001c0 64 cc 00 bf 48 ae 91 be f2 72 02 3f b4 85 0b 3f
       -0.50311875 -0.2845328 0.5095664 0.5450089
0001d0 3a e2 08 bf 13 71 dc 3e 14 9d a5 3e 00 ee b2 3e
       -0.53470194 0.4305502 0.32346404 0.34947205
0001e0 6e 5e ed 3e 74 68 a8 be 83 2b 07 3e 7e a4 7d 3e
       0.46361107 -0.3289219 0.13200192 0.2476978
0001f0 f9 ac 2e be c9 26 28 3e 0a a1 3d be 58 84 cf 3e
       -0.17058171 0.16421045 -0.18518463 0.40530658

processor.2.weight f4 [128]
000000 95 9e 7f 3f a5 50 77 3f 95 bd 7f 3f bb 6e 74 3f
       0.9985135 0.9660743 0.99898654 0.9548146
000010 c0 f4 7f 3f 88 00 7c 3f 34 a4 80 3f 65 09 7a 3f
       0.99982834 0.9843831 1.0050111 0.97670585
000020 cf 3a 78 3f c0 f4 7f 3f 72 9e 6c 3f 77 4d 80 3f
       0.96964735 0.99982834 0.9242927 1.002364
000030 c4 09 80 3f 7c 1b 7a 3f 6a ec 64 3f 9f 0c 76 3f
       1.000298 0.9769819 0.8942324 0.9611301
000040 ca 60 76 3f da 03 79 3f 5f 1e 76 3f b5 5d 82 3f
       0.9624144 0.972715 0.9614009 1.0184847
000050 43 b1 7a 3f 89 aa 83 3f d4 9c 7a 3f 8b 7c 78 3f
       0.9792673 1.0286418 0.9789555 0.9706504
000060 76 d7 7b 3f ef dd 79 3f 82 21 7c 3f 28 b5 7d 3f
       0.9837564 0.9760427 0.9848863 0.9910455
000070 6c 23 72 3f 8a fb 7c 3f 36 67 80 3f 7f 10 82 3f
       0.945853 0.9882132 1.0031497 1.0161284
000080 f1 03 6e 3f 14 96 7d 3f f1 28 74 3f eb 9e 75 3f
       0.92974764 0.99057126 0.9537497 0.95945615
000090 bb 76 7b 3f 4e a2 77 3f 76 b3 71 3f ed 55 7c 3f
       0.98228043 0.9673203 0.9441446 0.9856861
0000a0 a5 e0 7b 3f 14 d0 81 3f c0 f4 7f 3f c0 f4 7f 3f
       0.98389655 1.0141625 0.99982834 0.99982834
0000b0 59 ed 80 3f 74 97 80 3f 9f e5 77 3f 88 f5 78 3f
       1.0072433 1.004622 0.9683475 0.9724965
0000c0 e6 85 7f 3f 60 1e 95 3f c0 f4 7f 3f 2b 8f 7b 3f
       0.9981369 1.1649895 0.99982834 0.9826533
0000d0 23 3e 7d 3f c0 f4 7f 3f 95 a4 83 3f c0 f4 7f 3f
       0.9892294 0.99982834 1.0284601 0.99982834
0000e0 8f f4 80 3f 8e 12 83 3f 43 65 84 3f 87 3e 7c 3f
       1.0074633 1.0240037 1.0343403 0.9853291
0000f0 75 a4 8c 3f 64 9b 7a 3f c0 f4 7f 3f 75 72 7a 3f
       1.0987688 0.9789336 0.99982834 0.978309
000100 d2 45 7f 3f c0 f4 7f 3f 0b be 84 3f d7 aa 77 3f
       0.9971591 0.99982834 1.0370497 0.96745056
000110 f1 19 7b 3f 19 74 7a 3f c0 f4 7f 3f 73 cb 7e 3f
       0.9808646 0.978334 0.99982834 0.9952919
000120 9c 12 82 3f ac e0 76 3f 95 e1 77 3f 1c 36 7d 3f
       1.0161929 0.9643657 0.96828586 0.9891069
000130 c0 f4 7f 3f 6d 46 7a 3f 99 3d 7f 3f c0 f4 7f 3f
       0.99982834 0.9776371 0.99703366 0.99982834
000140 8f a6 78 3f bf 52 7e 3f 34 7b 7c 3f c0 f4 7f 3f
       0.9712915 0.9934501 0.98625493 0.99982834
000150 5a 85 75 3f cf b4 7e 3f 44 c0 80 3f 6c fc 7f 3f
       0.95906603 0.9949464 1.0058675 0.9999454
000160 36 28 78 3f b0 40 7c 3f 13 1c 80 3f b7 2e 6b 3f
       0.9693636 0.98536205 1.0008568 0.91868156
000170 db 55 78 3f ce 07 80 3f ba 14 83 3f bb ab 7f 3f
       0.97006005 1.0002382 1.02407 0.99871415
000180 c0 f4 7f 3f 23 24 79 3f c0 f4 7f 3f c5 13 84 3f
       0.99982834 0.97320765 0.99982834 1.0318533
000190 cf ea 7f 3f 2d 06 7a 3f a7 99 73 3f e5 51 7f 3f
       0.99967664 0.97665673 0.9515633 0.99734336
0001a0 8d 26 7c 3f 16 e8 7a 3f 36 67 79 3f dd 05 87 3f
       0.98496324 0.98010385 0.9742311 1.0548664
0001b0 18 6e 7b 3f cd 4b 81 3f e3 c7 77 3f 06 a4 7a 3f
       0.98214865 1.0101258 0.9678938 0.9790653
0001c0 ac ea 7d 3f 05 4b 77 3f 25 30 79 3f 5e f6 7a 3f
       0.99186206 0.96598846 0.9733909 0.98032176
0001d0 c0 f4 7f 3f 4b 81 74 3f db 34 7b 3f 78 5d 7d 3f
       0.99982834 0.95509785 0.98127526 0.98970747
0001e0 84 b7 7e 3f 10 dd 75 3f 79 ff 7c 3f 62 60 7e 3f
       0.9949877 0.9604044 0.9882732 0.9936582
0001f0 c0 f4 7f 3f 89 be 7f 3f 04 10 7d 3f 8d 22 7d 3f
       0.99982834 0.9990011 0.9885256 0.98880845

processor.2.bias f4 [128]
000000 e3 9f 0c bd 98 09 98 3b bc 04 1c bd 37 fd 82 3d
       -0.034332167 0.0046398155 -0.038090453 0.06395953
000010 8c 4c 4b bd 9b bb 7e bc 1f 2b ba bc 38 a0 5e 3d
       -0.049633548 -0.015547658 -0.02272564 0.054352015
000020 37 fb 0d bc bc 09 d6 bc bf 5d 98 bc 6a ef 0b bb
       -0.008665851 -0.026127689 -0.01859939 -0.0021352419
000030 78 83 52 bd bc 24 bd 3c cb 1e 16 3d 25 8e 77 bb
       -0.05139491 0.023088805 0.03665046 -0.0037773934
000040 d0 d8 93 bc 21 c1 75 3d db c2 73 3c 02 18 be bc
       -0.01804772 0.059998635 0.014878 -0.023204807
000050 bb 5c 75 3a 33 89 d6 bc 2a 17 b7 bb 27 16 5c 3d
       0.0009359826 -0.026188469 -0.005587478 0.053732064
000060 b1 15 35 3d 32 1d b8 3b 9a 74 29 3c af 99 21 bb
       0.04421014 0.0056187147 0.010342741 -0.0024658253
000070 ac 93 f7 3c a0 51 0f bc 10 6f c5 bb 6b be c6 bc
       0.030221783 -0.008747488 -0.0060252026 -0.02426072
000080 c5 0a 96 3d af 4d 2a bd d1 1a f1 bc 52 5a 58 bd
       0.07326273 -0.04157799 -0.029431732 -0.05282051
000090 6c 85 da 3c 6d 1f 08 3d 02 6c 3b 3d 0a eb b4 3b
       0.026674949 0.033233095 0.0457573 0.005521183
0000a0 d3 33 a5 3d 37 04 34 3d ce 4b 6f bd 14 d4 9b 3c
       0.08066525 0.043949332 -0.058421902 0.019022025
0000b0 dd 4b 2a bc be 6c 13 bd b4 9c 45 bd 93 1a 63 3d
       -0.010394064 -0.035992377 -0.048245147 0.055445265
0000c0 01 3a 74 bc cf 3f 9f 3c 89 88 15 bd cf ca 09 3c
       -0.014906407 0.019439606 -0.036507163 0.00841017
0000d0 e2 bc c0 3b bf b9 74 bd 59 a8 d0 bc 85 de 89 bd
       0.0058818916 -0.059747454 -0.0254709 -0.06731895
0000e0 eb 8c 31 bd 8f 7a 29 bc ea 9c 02 bd 46 d1 20 bd
       -0.04334728 -0.010344162 -0.031887926 -0.03926208
0000f0 88 62 b4 bc 84 04 02 bd f7 65 85 3d 03 66 00 bd
       -0.02201964 -0.031742588 0.06513589 -0.031347286
000100 0e bd 02 bd f0 d5 63 bd 4e 2e 7f bc 20 e0 fd 3c
       -0.031918578 -0.05562395 -0.015575005 0.03099066
000110 da e7 f1 3c 72 11 b5 3c 50 9a 87 3d 99 5d 4c bd
       0.0295295 0.022103045 0.0662123 -0.04989395
000120 8b 5d 48 bc 49 4d 06 bd c4 67 2a 3d b6 26 57 38
       -0.012229334 -0.03278855 0.041602865 5.1296047e-05
000130 0c b0 16 bd d3 0d c8 bc 48 07 9c bc 74 b9 8a 3c
       -0.036788985 -0.024420654 -0.01904644 0.016934134
000140 b1 0d 9d 3d 44 ce 73 bd 3b 16 02 3d 7d 0e 3f 3d
       0.07668627 -0.059522882 0.031759482 0.046644676
000150 11 cd a6 3a 73 97 3a 3b 26 8d d3 3a 8b 14 b2 3c
       0.001272591 0.0028471618 0.0016140088 0.021738311
000160 8a 4a 98 bb 87 7a 77 3b 3f cc d0 3c 97 88 0a 3d
       -0.0046475576 0.003776224 0.025488017 0.03382167
000170 0d 2f b8 3b 58 18 b4 3c 9a 56 7c bc 0f 31 49 3d
       0.0056208433 0.021984264 -0.015401507 0.04911905
000180 2a 13 1d 3d 62 4d aa 3d 17 d3 82 3d b6 6f 48 bd
       0.038348354 0.08315541 0.063879184 -0.04893466
000190 35 71 27 bc 62 02 a8 3d 27 a2 04 3d 2a bd 7b bc
       -0.010219862 0.082035795 0.032381203 -0.015364924
0001a0 27 76 78 3c 3a bd 5d 3d dc 43 9c 3b c3 25 20 bd
       0.015164888 0.05413554 0.0047688317 -0.039098512
0001b0 ce 9a 9b 3d 12 70 b2 ba 2f 1e 53 bc 6e 3e 2e 3d
       0.07597886 -0.0013613722 -0.012885614 0.042540006
0001c0 c6 42 ae 3c 64 a0 1a bc 83 a6 cf 3c ac c8 86 3d
       0.021272074 -0.009437654 0.025347954 0.06581244
0001d0 ad c5 47 3d 38 89 72 3c 25 ed 82 3d 28 f2 97 3c
       0.048772503 0.014803223 0.06392888 0.018548086
0001e0 26 c6 2d bc da f4 6c 3c 89 60 02 bd e5 7d 88 bc
       -0.010606324 0.014462674 -0.031830344 -0.016661594
0001f0 12 2e 9d 3d df 80 2d bd 4f 90 e7 bc 74 86 a8 bc
       0.07674803 -0.04235923 -0.028267054 -0.020571925

processor.2.running_mean f4 [128]
000000 54 86 ec 3d 94 df 19 3f bc c5 be 3e 46 af 86 3e
       0.115490586 0.6010678 0.37260234 0.26305598
000010 00 00 00 00 ce d9 0d 3f de c0 f6 3d 13 8d 30 3e
       0.0 0.5541047 0.12048505 0.17241316
000020 49 d7 4c 3d 00 00 00 00 ed d7 8b 3a de 28 80 3d
       0.05001 0.0 0.0010669209 0.06257795
000030 c0 32 49 3f e1 d4 4b 3d f7 b5 95 3a ef 05 56 3f
       0.78593063 0.049763564 0.0011422028 0.83602804
000040 de 7f 1a 3f 3d c8 70 3e f7 67 8d 3d 08 d6 89 3e
       0.6035136 0.23513885 0.06904595 0.26921105
000050 22 a2 57 3e 17 9f 07 39 01 7a 4e 3f 32 18 56 3e
       0.21057943 0.00012933869 0.80654913 0.20907667
000060 d4 62 9c 3e 3a df 46 3e f9 57 fa 2f 01 f3 04 3e
       0.3054415 0.19421092 4.5537243e-10 0.12983324
000070 7b 8f e3 3e 19 86 3d 3d 4e 26 5f 3d 68 0b 99 3c
       0.44445404 0.046270464 0.05447989 0.018682197
000080 9a b9 47 3d 71 07 cf 3e 73 4b 1e 3b 4e ec f4 3d
       0.048760988 0.40435365 0.0024153858 0.11959134
000090 f1 92 53 3c 3e 1c 0d 3d 68 3f c4 3d 7b 97 d3 3e
       0.0129134515 0.034450762 0.09582406 0.41326508
0000a0 da 2f 0d 3e 5a 49 a0 3b 00 00 00 00 00 00 00 00
       0.13787785 0.0048915567 0.0 0.0
0000b0 95 88 79 3d 75 6e 2e 3e 60 7d ea 3d 49 1f f8 3e
       0.06092127 0.17034324 0.11449695 0.4846137
0000c0 37 1c 20 3f 12 46 4e 39 00 00 00 00 56 99 0d 3d
       0.6254305 0.00019671794 0.0 0.03457006
0000d0 38 7d 7f 3d 00 00 00 00 0e 44 23 3e 00 00 00 00
       0.062375277 0.0 0.1594393 0.0
0000e0 bc 9a 29 3b dc 7b 42 3c 1e 0f 02 3e 8d 36 d9 3e
       0.0025879582 0.011870351 0.12701079 0.4242443
0000f0 d0 c5 f8 38 62 a9 3e 3f 00 00 00 00 90 c1 20 3f
       0.00011862407 0.7447721 0.0 0.6279535
000100 2c 16 17 3d 00 00 00 00 fd 47 e7 3e 3c 61 d8 3d
       0.03688638 0.0 0.4517211 0.10565421
000110 87 88 32 3f 08 24 b7 3e 00 00 00 00 5f 15 08 3f
       0.69739574 0.35769677 0.0 0.5315761
000120 32 d9 77 3e f5 ce 1b 3f 59 ce 3e 3c 59 e5 11 3d
       0.24203947 0.60862666 0.011645877 0.035619114
000130 00 00 00 00 77 c5 2a 3e 43 0d e6 3d 00 00 00 00
       0.0 0.1667689 0.11232998 0.0
000140 7a 58 9b 3e 85 33 3f 3e f1 90 d8 3d 00 00 00 00
       0.3034094 0.18671997 0.105745204 0.0
000150 e9 fb 81 3d b4 96 d2 3b fe fd 47 3d 0b 7f 6d 3f
       0.06346876 0.0064266566 0.04882621 0.9277198
000160 cc 69 1a 3e 1e 14 71 3e 68 49 c1 3c 8a 90 99 35
       0.15079421 0.2354283 0.023594573 1.1441455e-06
000170 bf 0d 7c 3d 5e 9e f4 3d b4 1f be 3d 9b a3 89 3e
       0.061536547 0.11944269 0.09283391 0.26882634
000180 00 00 00 00 03 f7 fe 3c 00 00 00 00 ca 93 c1 3e
       0.0 0.031123644 0.0 0.37808067
000190 2d ee 2f 3b 85 7a 97 3e 53 2d 23 3f 0d 23 9a 3d
       0.0026844845 0.29585662 0.63741034 0.07526217
0001a0 3c df ab 3d a0 91 c1 3d 2a 9e 5e 3d 89 ab 44 3b
       0.08392188 0.09451604 0.054350056 0.003000947
0001b0 7a 4c 39 3f d0 4a be 3a 76 66 18 3f d7 d2 c9 3d
       0.7238232 0.0014518145 0.59531343 0.09854668
0001c0 33 77 29 3e d4 2a a3 3d 81 a7 ff 3e 89 20 55 3f
       0.16549377 0.07967153 0.49932483 0.8325277
0001d0 00 00 00 00 86 17 ff 3e 8e 9b ae 3e 22 94 61 3e
       0.0 0.49822634 0.34103054 0.22029164
0001e0 1b 1c eb 3d 34 a8 3a 3e 4b 09 a4 3d 7b 56 8d 3e
       0.1147997 0.18228227 0.08009585 0.27605042
0001f0 00 00 00 00 23 fa 2a 3f df ad 9e 3e a8 7b 4b 3f
       0.0 0.6678793 0.30992028 0.7948556

processor.2.running_var f4 [128]
000000 40 98 81 3c 4a 2b 41 3d 03 85 a4 3c af 03 35 3d
       0.015819669 0.047160424 0.020082956 0.044192966
000010 04 00 00 00 e7 bf 82 3c a8 db 0f 3c 84 7e 41 3e
       6e-45 0.015960647 0.0087803975 0.18895918
000020 72 bc b3 3b 04 00 00 00 9e a6 3f 38 ed 16 2c 3c
       0.005485111 6e-45 4.5693123e-05 0.010503513
000030 53 5c a1 3d 0f 77 20 3d 04 04 c3 39 72 80 8f 3d
       0.078789376 0.039176043 0.0003719629 0.07006921
000040 c1 e8 1e 3d 89 db a2 3e 6e 9a a5 3d e6 a6 f4 3c
       0.03879619 0.31808117 0.08086096 0.02986474
000050 26 44 b7 3d 00 31 02 36 ef 10 5c 3c 6e b2 90 3e
       0.08948545 1.9400031e-06 0.013431772 0.2826113
000060 5d 55 ba 3d 05 49 79 3e 5f b4 2d 2d d6 a4 2a 3e
       0.09098313 0.24344261 9.873962e-12 0.16664442
000070 c9 21 9e 3c cf 75 94 3b ea e7 d1 3c e4 4d 3f 3c
       0.01930322 0.0045306454 0.02562328 0.011676285
000080 9f 7b 2c 3d bd 33 5a 3d b2 81 d7 38 77 1e 91 3c
       0.04211008 0.053271998 0.000102761565 0.017714722
000090 c2 6d 2d 3a 84 44 c8 3c b3 43 fe 3d 01 39 38 3b
       0.00066157815 0.024446733 0.12415256 0.002811015
0000a0 1f 1c 7a 3d 14 c8 37 3b 04 00 00 00 04 00 00 00
       0.061061975 0.002804284 6e-45 6e-45
0000b0 78 a7 a6 3b 91 5f 58 3b 86 3d e8 3c 64 11 2f 3e
       0.005085882 0.0033015946 0.02834965 0.17096478
0000c0 7a 63 86 3d 81 93 24 36 04 00 00 00 3c 4c c0 3c
       0.065619424 2.4523763e-06 6e-45 0.023473851
0000d0 d5 c3 51 3d 04 00 00 00 f9 6b a0 3c 04 00 00 00
       0.05121215 6e-45 0.019582735 6e-45
0000e0 62 c2 8c 38 04 84 61 3a c6 74 ea 3b bf 84 52 3d
       6.711927e-05 0.00086027407 0.0071550338 0.051396128
0000f0 3a 78 74 35 aa 10 19 3d 04 00 00 00 94 9b 06 3e
       9.1072036e-07 0.037369408 6e-45 0.13145286
000100 4b e9 41 3b 04 00 00 00 90 34 df 3c c1 1f de 3d
       0.0029588516 6e-45 0.027246743 0.108459
000110 49 77 78 3d 2d b2 82 3e 04 00 00 00 3e 7e 71 3c
       0.060660634 0.25526562 6e-45 0.014739571
000120 f5 b7 f2 3c e7 e6 89 3d 60 27 c9 3b c1 43 e3 3c
       0.029628733 0.06733494 0.006138727 0.027742269
000130 04 00 00 00 6b 95 53 3e db 36 cf 3d 04 00 00 00
       6e-45 0.20662467 0.10117885 6e-45
000140 3b be 72 3d 7e 5f cf 3c 57 36 12 3e 04 00 00 00
       0.05926345 0.025314089 0.14278542 6e-45
000150 12 2b b0 3d 36 82 0d 3a 19 64 c4 3b 26 99 13 3e
       0.08601965 0.0005398126 0.005993378 0.1441389
000160 a9 3e 42 3d c7 47 49 3d 7d a6 33 3b 05 71 4c 34
       0.04742304 0.049140718 0.0027412467 1.9040097e-07
000170 56 51 aa 3d 48 ce f1 3c 5c 32 1b 3c 6d 6b 78 3e
       0.08316295 0.029517308 0.009472456 0.2425973
000180 04 00 00 00 eb 91 86 3c 04 00 00 00 d9 e0 e0 3c
       6e-45 0.016427001 6e-45 0.027450966
000190 7b 31 89 38 c2 c9 13 3d 1c 05 bc 3c 8d f0 0d 3c
       6.5418855e-05 0.036081083 0.022951655 0.008663309
0001a0 41 5d e3 3c d1 12 ff 3d 60 0a 1f 3d db 22 f7 38
       0.027754428 0.12454761 0.038828254 0.0001178437
0001b0 2f 6e 52 3e ff 29 59 39 38 8b b1 3d 00 ef 01 3e
       0.20549844 0.00020710377 0.08669132 0.12688828
0001c0 0f 5b 28 3e 10 73 e1 3d a4 6a 81 3e ca 2a 9a 3e
       0.16440986 0.110082746 0.25276673 0.3011077
0001d0 04 00 00 00 70 a8 59 3e 02 eb b9 3c ad 86 ac 3d
       6e-45 0.2125566 0.022695068 0.08424125
0001e0 58 f4 ae 3c 88 1b 51 3e 36 85 d6 3d 27 7f ec 3c
       0.021356747 0.20420659 0.10474627 0.028869225
0001f0 04 00 00 00 b4 e8 9c 3d f5 ca 4a 3e 06 0b 31 3d
       6e-45 0.07661572 0.19803984 0.043223403

processor.3.weight f4 [128, 128]
000000 8c f1 99 b9 ae ef 3f bd 0f 8c f6 3c d1 6a 19 3d
       -0.000293624 -0.046859436 0.030096082 0.037455384
000010 ad 6d cd bc 52 5c 89 3c be 58 28 3d 83 9c 9c bb
       -0.025076712 0.016767655 0.041100256 -0.0047794
000020 12 9a 39 3c dd ac 40 3c 8e 33 a4 ba 56 14 88 bd
       0.011328237 0.011759964 -0.0012527572 -0.06644504
000030 a9 66 6e bd 4c 5c 1f bd 71 ba b8 3d 8e 28 f7 bc
       -0.058203373 -0.03890638 0.09019936 -0.030170705
000040 02 46 64 bc b8 b4 0a bd 3d 92 b8 3d 14 86 88 3d
       -0.013932707 -0.033863753 0.09012268 0.066661984
000050 47 7e 21 bd ef c8 80 bd db 1c 79 bd 18 26 49 3c
       -0.039427068 -0.06288325 -0.060818534 0.012277149
000060 cf a6 d4 bb a2 cd 36 bd 89 97 05 bd 51 0d d8 3c
       -0.0064896117 -0.0446297 -0.03261522 0.026373537
000070 94 a3 21 bd 7c 5d 9a 3c 64 7d b3 bc 49 cd 44 bd
       -0.03946264 0.018843405 -0.021910377 -0.048047338
000080 07 70 69 3c f8 60 93 3d 6f ab 0d bd 1b 02 1e 3b
       0.014247901 0.0719623 -0.03458732 0.0024110142
000090 58 57 e4 bc ce fd c2 3d 63 2b 9f bd b6 ff 91 bd
       -0.02787368 0.09521066 -0.07771947 -0.07128851
0000a0 ad 47 c6 3d 77 a3 7a bd 4f 84 55 3c f2 79 bb bc
       0.0968164 -0.06119105 0.013032033 -0.022885296
0000b0 fc 48 0b bc 0d 60 d4 bc ea 58 a0 3d e3 28 b0 3c
       -0.008501288 -0.025924707 0.07829459 0.021503871
0000c0 20 8c d3 bd ba ce f7 bd 96 16 30 bd ce ab 3c 3d
       -0.10329461 -0.12099977 -0.04299029 0.046062283
0000d0 58 c3 46 bd cf 7f b8 3d 10 b4 26 bd 3a 0c 1d bc
       -0.048526138 0.090087526 -0.040699065 -0.009585435
0000e0 fb c4 cd 3d e0 41 d7 3d 12 aa b1 3d 8b ba 59 3d
       0.10047337 0.105106115 0.086750165 0.053156417
0000f0 39 f6 0c 3d dc 9f 2d bd 68 95 3d b9 3a 61 b5 3d
       0.034414504 -0.042388782 -0.00018080103 0.08856435
000100 3f c6 5c bd e2 3f ac bd ec 87 96 3c 2b ea c4 3d
       -0.0539 -0.08410622 0.01837536 0.096149765
000110 33 d1 d6 bc 4e 97 7d bd 7d 75 ab bd de 28 33 3c
       -0.0262228 -0.061911874 -0.083720185 0.010935036
000120 e1 25 21 bc 8f 2d 6a bd b4 e5 86 3c a6 f6 07 3d
       -0.009835691 -0.057172354 0.016466953 0.033194207
000130 ad e4 80 3d 9d 16 96 3d 79 da cc 3a 2e a7 b7 bd
       0.062936164 0.07328532 0.0015629075 -0.08967434
000140 29 b3 68 bd 39 38 d6 3d af 53 47 3d 41 ca 06 3d
       -0.056811485 0.10459942 0.04866379 0.032907728
000150 cb e0 a3 bd 58 13 00 3e d9 1c 90 3d 9a 9d bf 3d
       -0.0800186 0.12507379 0.07036752 0.09356232
000160 6a 7a 8e bd 40 1e 97 bc 91 65 2f 3c d8 72 87 3d
       -0.069569424 -0.018447042 0.010705368 0.066137016
000170 4e 46 22 bd 54 d5 15 bd ca c8 89 3d cd 5c 04 bd
       -0.03961783 -0.0365804 0.067277506 -0.032315064
000180 7a e8 53 bd 4d 15 9a bb 91 73 e3 bb f9 e6 9a bd
       -0.05173538 -0.0047022463 -0.006941267 -0.07563586
000190 cb a5 aa 3d 37 4b d5 bc b5 ae 4a 3d ff b7 a3 3d
       0.08332404 -0.026036842 0.04948302 0.07994079
0001a0 62 d7 75 3d bf 1b 8a 3c 34 e2 a6 3d 44 00 6e 3d
       0.06001986 0.016858933 0.081486136 0.058105722
0001b0 06 01 d0 bc 31 27 d2 3d 80 e1 e4 3b 12 02 9f bd
       -0.025391113 0.102613814 0.0069848895 -0.07764067
0001c0 f5 4a 83 bc dd 40 76 bd 56 84 bc 3d dc d4 4e bb
       -0.016026953 -0.060120452 0.092049286 -0.003155998
0001d0 12 8b b3 bd 75 93 58 3b 66 30 97 3d 16 e3 0f 3d
       -0.0876676 0.0033046876 0.07382278 0.035128675
0001e0 55 bf 6f 3c f1 c3 08 3c 64 b0 20 3d 97 5e e3 bc
       0.014633019 0.008347497 0.03923072 -0.027755065
0001f0 d2 b0 30 bd 5b 76 b7 bd ad ce 5f bd 76 c6 05 3d
       -0.04313738 -0.089581214 -0.05464046 0.03265997
000200 d4 2f 4c bd 66 c0 06 3d 62 8c 65 3d fd 75 4a 3c
       -0.0498503 0.03289833 0.056042083 0.012357232
000210 17 a6 19 bb b8 3e 7c 3d 60 b3 3c bd 6e 2e 5c 3d
       -0.0023444945 0.06158325 -0.046069503 0.053755216
000220 7a 12 77 bd 5b 0d 55 3d 6f a3 c8 3d d3 e5 14 bc
       -0.060320355 0.05201469 0.097967975 -0.0090879975
000230 c9 24 a2 3d 02 8d 11 bd bc 69 a1 bd be 32 39 bd
       0.079171725 -0.035534866 -0.07881495 -0.045214407
000240 16 22 ac 3c 15 a2 a7 3d eb 07 20 bd c2 6d 17 3d
       0.021012347 0.081852116 -0.03907005 0.036969908
000250 ee f3 10 bc 25 8c 87 bc d7 d8 da 3c 03 a5 71 bd
       -0.00884722 -0.016546318 0.026714725 -0.058995258
000260 c6 12 e8 bb 77 c2 bf 3d 99 2e 0a bc 65 e7 ad 3d
       -0.007082316 0.09363263 -0.008433961 0.08491401
000270 43 ea 8c bc b8 ab 8b 3d 63 24 c6 bd bf d3 01 bc
       -0.017201548 0.06819862 -0.09674909 -0.007924019
000280 76 b0 66 3c 27 6d 55 3d a5 17 84 3d 34 ea 54 3d
       0.0140801575 0.05210605 0.06449822 0.051981166
000290 ce 2a 22 bd c1 74 14 bd e2 f8 8d 3d 4b 34 46 bd
       -0.039591603 -0.036244158 0.06932236 -0.048389714
0002a0 5f d1 bc 3d 03 74 8d bd f6 f4 dc 3c d9 3e 61 bd
       0.09219622 -0.06906893 0.026972275 -0.054991577
0002b0 37 95 0f 3d b3 ae 8e 3d 32 c0 08 bd 10 67 91 bd
       0.03505441 0.06966915 -0.033386417 -0.07099736
0002c0 21 80 8b 3d 94 5d 35 3e f9 90 81 3d 05 21 9b bc
       0.06811548 0.17711478 0.063264795 -0.018936643
0002d0 19 e5 8b 3d 96 a7 02 3e d6 6d 82 3c 66 39 18 bd
       0.06830806 0.12759241 0.015921514 -0.037164114
0002e0 07 f0 aa 3d 89 16 2b bc 01 a6 ea 3c 83 59 0f 3c
       0.08346563 -0.0104423845 0.02864361 0.008749369
0002f0 b8 33 ed ba ae 29 85 3c aa 26 e3 bd 94 90 82 3b
       -0.0018097078 0.016255226 -0.11091359 0.00398452
000300 3e 25 46 bd 7f 43 ba 3c 09 63 fe 3c f3 de c4 3d
       -0.04837536 0.022737263 0.031053083 0.09612837
000310 56 25 25 bd 52 f0 5e 3d cc 82 38 bd a2 81 85 bd
       -0.04031881 0.054428406 -0.045046613 -0.06518866
000320 e1 ae 8e bd e5 f4 54 bd d7 e3 e4 3d 0a d4 7a bc
       -0.06966949 -0.051991362 0.111762695 -0.015309343
000330 a8 5d 34 3d 48 63 14 3c bd f4 2c 3d 03 49 16 3d
       0.04403463 0.009056874 0.042225588 0.036690723
000340 15 c6 ad 3d 38 87 82 bd 19 38 50 bc c5 d3 b1 bd
       0.08485047 -0.06373447 -0.012708687 -0.0868297
000350 dc ed da bc 69 4f 11 3d 4d a4 0b 3e 26 5b c1 bd
       -0.026724748 0.035476122 0.13636895 -0.09441213
000360 52 e4 88 3d cf cb 36 bd fd b4 88 3c 35 40 b8 3d
       0.06684174 -0.04462796 0.016687864 0.089966215
000370 25 97 18 bc b1 e2 05 3d 76 bb 1d bd e4 a3 85 3d
       -0.009313379 0.032686893 -0.038508855 0.065254
000380 39 aa 33 bd 7c 0d 57 bd ad 3b 96 bc ca 91 57 bd
       -0.04386351 -0.052503094 -0.018339003 -0.05262927
000390 ca 36 2a be a8 cf 0b 3d f0 36 54 3d e1 85 af bd
       -0.16622463 0.034133583 0.051810205 -0.08570457
0003a0 a3 31 01 3c 7d c1 a2 3d 4b 41 7c 3d 6b fd 1a be
       0.0078853695 0.07947061 0.061585706 -0.15135734
0003b0 5f ed c8 bc ff 50 68 bc 85 8b 50 bd fc d9 18 bc
       -0.02452725 -0.014179467 -0.050914306 -0.009329315
0003c0 ba 46 85 3d 31 3b c0 3d d6 d1 a1 3c 2d 23 cc 3b
       0.06507631 0.0938629 0.019753378 0.006229779
0003d0 e0 2b 91 bd ac 70 62 3d 2f 66 8e bc c8 31 ad bd
       -0.070884466 0.055283234 -0.01738271 -0.08456761
0003e0 af 03 4f 3d 64 21 2d 3d 7c c7 61 bd bd cb 7b 3d
       0.050540622 0.042268172 -0.055121884 0.061473597
0003f0 ba 27 c8 bb 45 02 46 bd f7 3d 05 bd 77 c4 3f 3d
       -0.0061082514 -0.04834201 -0.032529797 0.046818223

processor.3.bias f4 [128]
000000 80 09 52 bd 84 88 ce bd cf 57 ad bd 74 98 0d 3c
       -0.05127859 -0.10084632 -0.08464014 0.008642305
000010 8e 35 aa bd 8b 6a 86 bd a4 83 94 3d 33 74 07 be
       -0.08310996 -0.0656329 0.07251671 -0.1322792
000020 a6 82 b2 bc bb 5d 80 3c 4f e5 84 bd d2 2f 86 3d
       -0.021790814 0.015669694 -0.0648905 0.0655209
000030 60 76 b5 bd f7 00 2b ba 5e 29 2b 3c f7 cc 5a bd
       -0.08860469 -0.0006523276 0.010446874 -0.053418126
000040 4a 6a 94 bd 5f aa 9e 3c 23 52 b1 bc 1d a9 d1 3d
       -0.072468355 0.019368349 -0.021645611 0.10237334
000050 db c6 7d bd 83 72 9d 3d 20 c9 0b be 3f 06 41 bd
       -0.06195722 0.07687857 -0.13650942 -0.047125097
000060 a3 be 9c bc d2 c7 ae bc 24 11 4f 3d 9b 5c 7d 3d
       -0.019133871 -0.021335516 0.050553456 0.061855894
000070 42 9f 41 bd 31 8c 08 bc 21 87 8e bc eb a8 71 3d
       -0.04727102 -0.0083342055 -0.017398419 0.058998983
000080 ee 4f 75 3d 07 ac cb bc 4c 88 b1 bc 9f a1 92 3d
       0.05989068 -0.024862302 -0.021671437 0.07159733
000090 5e 98 26 3d c9 ac b3 bd 72 12 91 3d 6c 3d 5e bd
       0.040672652 -0.087731905 0.07083596 -0.054257795
0000a0 85 db d1 3c ca ae c6 3c 33 79 3f bd a0 1a e9 bd
       0.02561737 0.024253268 -0.046746444 -0.113820314
0000b0 0f d2 97 bd bb 64 86 bd 55 67 3e bc 3f 5c 70 bc
       -0.07413112 -0.065621816 -0.011621316 -0.014670431
0000c0 5f 4f c5 bc 64 f6 d2 bd 20 e1 0b 3d 52 a1 30 bd
       -0.024085699 -0.103009015 0.034150243 -0.043122597
0000d0 1d 8d c1 3c 91 0d cb bd fe 95 19 bd 99 45 cc 3c
       0.023626858 -0.09914697 -0.03749656 0.02493553
0000e0 bb f5 33 3d 3a 44 dd bd 52 7f 81 3d 62 35 cc bd
       0.04393552 -0.10804029 0.063231125 -0.099711195
0000f0 6c 64 58 bd d6 fb bb bd 7e 48 cc bd 01 33 7e 3c
       -0.052830145 -0.09178893 -0.09974764 0.01551509
000100 d0 1d 70 3d 02 6a 8e 3d f1 43 20 3c 3f 63 5c bd
       0.05862218 0.06953813 0.0097818235 -0.053805586
000110 15 13 61 3b 2e 19 60 bc bf f8 45 be fb 4f e0 bc
       0.003434365 -0.013677878 -0.1933317 -0.027381888
000120 5c 9d 91 bc 59 e1 7a 3d dd 97 98 bc b0 f1 81 bd
       -0.01777523 0.061250065 -0.018627102 -0.06344926
000130 b1 3a 66 bc 04 1f 5f 3d 8f b9 9e 3d 81 e3 7c bd
       -0.014052079 0.05447294 0.07750236 -0.061740402
000140 a6 2c 89 3d 28 87 dd bd 55 36 8d bd 45 d9 0e bd
       0.06697969 -0.10816795 -0.06895129 -0.034875173
000150 7b 71 8c 3c fb c4 b1 bd 37 e3 af bc a5 86 88 bd
       0.017143955 -0.08680149 -0.02147065 -0.066663064
000160 2c 3f 43 bb a7 5f c3 3d f9 a9 6c bd 05 aa e7 bd
       -0.0029792292 0.095397286 -0.057779286 -0.113117255
000170 1e b3 bd ba a8 b6 c0 3c b0 ce 29 bb 0b 9f f0 bc
       -0.0014472937 0.023524597 -0.002591055 -0.029372713
000180 95 85 24 bd c9 f5 42 3d 18 19 8e 3c 28 a9 cb 3c
       -0.040166456 0.04759768 0.01734595 0.024860933
000190 28 ce 7b 3c 96 94 c0 3c 0e 90 db 3b 87 1c 84 bd
       0.015368976 0.023508351 0.0067005223 -0.06450754
0001a0 af f6 94 bd 1b 7d 9c bd 7b d1 87 3d fd 47 28 3d
       -0.07273614 -0.076410495 0.06631752 0.04108428
0001b0 a6 1d 8b bd b9 e6 21 be 56 44 ad 3c 5e 47 87 bd
       -0.06792764 -0.1581067 0.02115075 -0.06605409
0001c0 08 f9 12 3d 00 67 e8 3b f5 f7 b9 3a bd 0f 47 bd
       0.035882026 0.0070923567 0.0014188277 -0.048598994
0001d0 ca 6c de bd f1 8c a0 3c 5b 92 83 bd eb 29 8e bd
       -0.108605936 0.019598456 -0.064243995 -0.06941589
0001e0 d4 25 5e bd 53 ff 2c bc 6b de a1 bd c4 40 80 bd
       -0.054235294 -0.010558921 -0.07903751 -0.06262353
0001f0 d9 61 2e bd 33 7f 39 3c ad ed c7 3c 39 0a 98 3d
       -0.042573784 0.011321831 0.024405325 0.07423825

processor.5.weight f4 [128]
000000 70 5f 78 3f 17 b4 77 3f 61 ef 79 3f 2e de 76 3f
       0.97020626 0.9675917 0.9763089 0.9643277
000010 bb 64 84 3f eb 66 7f 3f 0f 8f 75 3f 5a 5c 80 3f
       1.034324 0.99766415 0.95921415 1.0028183
000020 4d db 76 3f b5 f6 7c 3f 3e ca 85 3f af 72 74 3f
       0.96428376 0.98813945 1.0452344 0.95487493
000030 64 c7 78 3f 0b ea 7b 3f 83 52 7c 3f cd f1 7e 3f
       0.97179246 0.98403996 0.985634 0.9958771
000040 e8 ce 7a 3f aa 1b 80 3f 9f dd 7b 3f 4e ff 78 3f
       0.97971964 1.0008442 0.9838504 0.97264564
000050 56 e9 7b 3f 01 00 78 3f 73 69 85 3f 70 4f 7c 3f
       0.9840292 0.96875006 1.0422806 0.9855871
000060 84 00 7f 3f 67 d5 79 3f bc 5e 7a 3f e4 b0 86 3f
       0.9961016 0.9759125 0.97800803 1.0522733
000070 14 38 77 3f 19 e5 73 3f 7a 4d 80 3f 3c b5 7e 3f
       0.96569943 0.9527145 1.0023644 0.9949529
000080 05 07 7e 3f ed ca 7c 3f a0 30 7e 3f b5 26 7a 3f
       0.9922946 0.9874714 0.99292946 0.9771531
000090 e3 51 74 3f 17 80 7a 3f 71 ea 80 3f cf 7a 7d 3f
       0.9543745 0.978517 1.0071546 0.99015516
0000a0 fe de 74 3f 0e 3e 7e 3f e8 ea 77 3f e4 70 78 3f
       0.9565276 0.9931344 0.96842813 0.9704726
0000b0 28 62 83 3f fa 3d 7a 3f 76 d6 7f 3f c4 60 84 3f
       1.026433 0.9775082 0.99936616 1.034203
0000c0 5c 12 77 3f bf ae 81 3f d7 8e 7d 3f f4 07 7f 3f
       0.9651239 1.0131453 0.9904608 0.9962151
0000d0 6c 4f 84 3f 55 64 7e 3f 15 31 77 3f b8 10 80 3f
       1.0336738 0.99371845 0.9655927 1.0005102
0000e0 32 00 7c 3f a3 ed 7e 3f 46 c9 78 3f 66 41 77 3f
       0.984378 0.99581355 0.9718212 0.96584165
0000f0 6d 21 74 3f 5d 9a 82 3f 57 13 74 3f 6c d9 7b 3f
       0.95363504 1.0203358 0.9534201 0.98378634
000100 83 d3 74 3f 53 de 79 3f da 41 76 3f fb 2a 81 3f
       0.9563524 0.97604865 0.9619423 1.0091242
000110 02 2e 7b 3f a6 43 84 3f 1e cd 7d 3f 30 b1 88 3f
       0.9811708 1.0333145 0.9914111 1.0679073
000120 3f 4c 83 3f 13 ae 79 3f 62 d8 80 3f 03 97 79 3f
       1.0257643 0.9753124 1.0066035 0.9749605
000130 c2 0e 7f 3f fe de 7a 3f 47 8b 7f 3f 8a 1f 76 3f
       0.99631894 0.9799651 0.99821895 0.96141875
000140 a1 72 83 3f 3e 3c 80 3f 7d 35 7b 3f 6d c0 7e 3f
       1.0269357 1.0018384 0.9812849 0.9951237
000150 4f 60 7c 3f 10 19 7e 3f 0a 54 83 3f a0 16 7f 3f
       0.98584455 0.9925699 1.0260022 0.996439
000160 c2 fa 72 3f 07 56 7e 3f df 82 7d 3f a4 08 7a 3f
       0.94913876 0.9935002 0.9902782 0.97669435
000170 1d 80 7f 3f 52 50 75 3f 87 e9 7b 3f 0e 16 81 3f
       0.9980486 0.95825684 0.9840321 1.0084856
000180 e4 43 78 3f f4 76 77 3f 0e 1c 7e 3f a7 67 84 3f
       0.9697859 0.96665883 0.9926156 1.0344132
000190 f4 e3 7e 3f a5 99 7c 3f 6c 78 81 3f 60 c7 80 3f
       0.9956658 0.9867194 1.0114875 1.0060844
0001a0 f8 b3 7e 3f 4e 09 7d 3f d0 4d 80 3f d6 69 81 3f
       0.9949336 0.9884232 1.0023746 1.0110424
0001b0 d8 d1 79 3f 38 6f 80 3f 3c 2a 7b 3f 17 14 7a 3f
       0.9758582 1.0033941 0.9811132 0.97686905
0001c0 01 d7 83 3f b8 ed 7e 3f 6c 5e 79 3f a1 4d 7f 3f
       1.0299989 0.9958148 0.974097 0.9972783
0001d0 43 e0 82 3f 9f 67 7f 3f a6 ca 7c 3f 88 7e 7e 3f
       1.0224689 0.9976749 0.98746717 0.9941182
0001e0 cc 01 7d 3f 75 1c 79 3f 97 72 7e 3f 41 ed 7b 3f
       0.98830867 0.97309047 0.993936 0.98408896
0001f0 07 b2 75 3f d8 a1 7d 3f fb b6 7f 3f 7b 5b 7d 3f
       0.95974773 0.9907508 0.9988858 0.98967713

processor.5.bias f4 [128]
000000 b0 17 1c be db b9 fc 3c 6c be 00 be 5b a5 5f ba
       -0.15243411 0.030850342 -0.1257264 -0.0008531415
000010 07 93 fd 3c 81 9d 0c be c5 d9 2b 3d 6a 25 ea 3c
       0.030953897 -0.13731958 0.041955728 0.028582294
000020 10 54 26 be 0a f2 04 3d f0 4e 1a bd 81 06 4f bc
       -0.16243005 0.03245739 -0.037672937 -0.012635828
000030 5f bd 81 bd 61 38 23 3e ee bc ad bd 7d 37 20 3d
       -0.06334948 0.15939476 -0.08483301 0.039115418
000040 c9 01 a9 3d 04 da b7 bd 64 f0 b1 3d da 25 01 bd
       0.082522936 -0.0897713 0.08688429 -0.03153024
000050 d2 ca 1e bc 1e 7c 86 bd 4b d6 07 bd 71 84 07 3e
       -0.009691911 -0.06566642 -0.03316335 0.13234116
000060 24 c9 e6 bd 7b e9 56 3d c0 87 0a 3d 67 dc 7f 3d
       -0.11268833 0.052468758 0.033820868 0.06246605
000070 27 46 ef bb 94 f7 ba bd ee a5 a5 3d 7c 44 b4 bb
       -0.007302064 -0.09129253 0.08088289 -0.005501328
000080 c4 28 2e bd f7 8a 7e 3d 51 68 00 3c 11 1e 06 bd
       -0.042519346 0.062144246 0.007837371 -0.032743517
000090 81 89 b8 3d 6a 1f f3 3a 86 f8 5d bd 85 7c e6 3d
       0.09010602 0.0018548791 -0.05419209 0.11254219
0000a0 8c 55 90 bd 82 c0 dd 3d 99 48 a0 3d e5 35 27 3e
       -0.07047567 0.108277336 0.07826347 0.16329153
0000b0 e5 63 6b 3d f0 31 17 be 9f 3d bf bd df 8d 59 be
       0.057468314 -0.14765143 -0.09337925 -0.21245526
0000c0 88 b5 9d 3d 96 a0 30 3e ce 45 93 bd 75 eb 3f 3d
       0.0770064 0.17248759 -0.071910486 0.04685541
0000d0 b8 c5 ca bc eb 59 bc 3d 40 52 b5 3c 8c 1c 06 bd
       -0.024752483 0.09196838 0.022133946 -0.03274207
0000e0 a7 b5 49 bd 36 75 a8 3d 51 35 b3 bd 83 5c 82 bd
       -0.049245503 0.08225481 -0.08750404 -0.063653015
0000f0 a3 2c c0 3d 60 d0 70 3d 40 aa 02 3d 4b 1d 83 bc
       0.09383514 0.058792472 0.031900644 -0.016005179
000100 54 c0 e8 3c e0 0b 22 3d 69 83 52 bd d4 ba 2b 3d
       0.028412022 0.039562106 -0.051394854 0.04192622
000110 7a 27 98 bc 87 9d 0f bd d7 30 03 be 9e a1 37 bd
       -0.018573511 -0.03506234 -0.128116 -0.044831865
000120 81 c5 e5 3d 1c f9 a6 3c e0 c1 32 3d d0 7c b6 bd
       0.112193115 0.020382456 0.043641925 -0.08910525
000130 a8 55 b4 3b 61 bf ab bd 1a 14 2a 3e 55 79 99 3d
       0.005503375 -0.08386112 0.1660923 0.074938454
000140 3a 91 06 be f3 13 9c 3d 8a ea 75 bc 91 68 21 bd
       -0.13141337 0.076209925 -0.015009532 -0.039406363
000150 2c 6e 85 bd 62 3a bb 3d 1f b6 3a bd 99 7a f8 bd
       -0.06515154 0.09141995 -0.04558384 -0.12132759
000160 99 90 49 bd 2c 00 84 3d 9a aa 7b bd ab a5 98 bd
       -0.049210165 0.06445345 -0.061441995 -0.07453474
000170 14 30 3b be 04 06 46 bd af ea b7 bd fe 56 4c 3b
       -0.18280059 -0.04834558 -0.08980309 0.003117978
000180 ff 1e a7 bc 03 52 25 3e 6a 8d bc bd 54 8c 75 bd
       -0.020400522 0.16144566 -0.0920666 -0.05994828
000190 4c d0 1f bd 33 e9 c4 3d a9 ee 99 3d da 3e 00 be
       -0.039017007 0.09614792 0.07516224 -0.12523976
0001a0 b6 8c 1c bc f8 a0 53 bd ab a1 5c bc 03 f1 12 be
       -0.0095550325 -0.051667184 -0.013466279 -0.14349751
0001b0 d0 5d 6d 3c 2e b3 44 bd 88 85 12 3e 28 01 2b 3e
       0.014487699 -0.04802244 0.1430875 0.1669966
0001c0 e5 12 9d bd 08 84 2e 3d 54 dc 60 3d 31 d5 05 3e
       -0.076696195 0.042606384 0.05489762 0.13069607
0001d0 1a bb a7 bd 60 2f c5 3d 64 2e ca bd e2 ab e5 bc
       -0.08189984 0.09628177 -0.098721296 -0.028036062
0001e0 7f a6 20 3c 19 27 de bd 73 b9 ab 3c dd cf de bd
       0.009805321 -0.10847301 0.020962453 -0.108794905
0001f0 23 93 98 bd a3 ca d9 3c 43 0d cb bd 18 f9 91 bd
       -0.07449939 0.026585883 -0.09914639 -0.07127589

processor.5.running_mean f4 [128]
000000 9a 2e 10 3e 0e 36 1d 3e 08 89 86 3e ed ab 9e 3e
       0.14080277 0.15352651 0.26276422 0.30990544
000010 20 ac c1 3d 32 94 c8 3e 27 12 43 3e c2 65 ae 3d
       0.09456658 0.39175564 0.19049893 0.085155025
000020 86 2d 60 3e 14 2e 44 3e b0 52 db 3d 84 0d 11 3f
       0.21892366 0.19158202 0.10709131 0.5666125
000030 44 e3 5a 3e 35 ef 7a 3e 14 b9 62 3e 3f 99 62 3e
       0.21375757 0.24505313 0.22140914 0.22128771
000040 88 22 17 3e 87 21 8e 3e 02 ef 69 3e ca 7e b2 3e
       0.14759266 0.27759954 0.2284508 0.34862357
000050 71 bf a7 3e 96 28 dc 3e a8 46 b9 3d f5 97 26 3e
       0.32763246 0.42999715 0.0904668 0.16268905
000060 ec e9 8e 3e 05 23 61 3e 8b dd 42 3e 28 0e 5c 3e
       0.27912843 0.21986015 0.19029824 0.21489775
000070 33 d3 1c 3e dd c5 4b 3e df 08 de 3d 06 ae a3 3e
       0.15314941 0.19899698 0.10841536 0.31968707
000080 bb 2f ce 3e e6 1f 56 3e f2 73 88 3e 8a 7c 07 3f
       0.4027079 0.20910606 0.2665096 0.52924407
000090 a6 ae b9 3e 45 67 18 3e 77 cf a3 3e 44 96 17 3e
       0.3626606 0.14883144 0.3199422 0.14803416
0000a0 ef 19 09 3f 1d e1 88 3e ce 84 4a 3e 5e 23 ab 3d
       0.53555197 0.26734248 0.19777223 0.08356355
0000b0 fa 7e 1e 3e f3 ad 0c 3e 1f 95 1b 3e 12 f8 92 3e
       0.15478125 0.13738231 0.15193604 0.28704888
0000c0 ed 1f 2c 3e 39 16 01 3e 7e b2 97 3e da 5d 19 3e
       0.16809054 0.12606134 0.29628366 0.14977208
0000d0 fc d3 87 3e 36 9d 84 3d 3d 29 19 3e eb ed 37 3e
       0.2652892 0.06475298 0.14957137 0.17961852
0000e0 de 67 fb 3e c8 8c dd 3d fb b4 a5 3e 8e 25 67 3e
       0.49102682 0.108178675 0.3236464 0.2257292
0000f0 06 7f a5 3e d4 db c0 3d 42 07 cf 3e 24 71 89 3e
       0.32323474 0.09416929 0.40435225 0.26844132
000100 8f 69 d1 3e c4 dd d3 3e ad 7f 76 3e 86 84 57 3e
       0.40900847 0.4138013 0.24072142 0.21046647
000110 ee b4 9e 3e 47 4f c7 3d bd 1a 9b 3c a4 28 06 3e
       0.30997413 0.09731918 0.018933648 0.1310144
000120 ae 16 67 3e 68 5a 28 3e de 27 dc 3c 45 ad 4a 3e
       0.22567245 0.16440737 0.026874479 0.1979266
000130 f7 7f ad 3e 9b 68 9b 3e da 99 f6 3d 45 94 67 3e
       0.33886692 0.30353245 0.120410636 0.22615154
000140 60 08 b6 3e 97 1f a3 3d 5c 32 34 3e 1e 67 3d 3e
       0.35553265 0.0796501 0.17597336 0.18496367
000150 13 c7 c6 3e c0 de 23 3e f3 7c 82 3e 0c ce 62 3e
       0.38823757 0.16002941 0.25485954 0.22148913
000160 36 ac c1 3e 20 0d 9a 3e e8 2b 9c 3e 34 5a f2 3d
       0.378267 0.3008814 0.30502248 0.11833611
000170 10 c0 9d 3e 8d 82 02 3e f7 9e 08 3e 48 24 47 3e
       0.30810595 0.12745114 0.1334189 0.19447434
000180 f8 31 6e 3e 5a eb 0d 3f 67 fb 7b 3e 32 7b 43 3e
       0.23261249 0.55437243 0.24607621 0.19089964
000190 17 3d 82 3e 9c 6d 00 3f e0 2f 83 3e 2a 19 e9 3d
       0.25437233 0.5016725 0.25622463 0.11381753
0001a0 f1 55 8a 3e c0 2f 5d 3e 88 3a b6 3e 50 86 3d 3e
       0.27018693 0.21600246 0.3559153 0.18508267
0001b0 42 cc 92 3e 18 59 a1 3c d1 80 30 3e cd 54 4f 3e
       0.2867146 0.019695804 0.1723664 0.20247193
0001c0 a3 4f d0 3d 2a f7 78 3e 62 f5 4e 3e ae a9 f4 3d
       0.101714395 0.24313036 0.20210794 0.11946426
0001d0 93 a2 01 3e cf e4 8f 3e 6c c6 43 3e 95 64 81 3e
       0.12659673 0.28104255 0.1911866 0.2527205
0001e0 73 ec 9f 3e c4 bf 9f 3e 86 1f 4c 3e e1 17 2f 3e
       0.31235084 0.31200993 0.199339 0.17098953
0001f0 fb 7e 72 3e 1c e6 33 3e 8e 49 1b 3e a7 2c b9 3e
       0.23681252 0.17568249 0.15164778 0.3616688

processor.5.running_var f4 [128]
000000 25 46 07 3e 23 d6 8d 3e 5a c8 ac 3e 86 26 05 3e
       0.13210352 0.27702436 0.33746606 0.13002977
000010 fc bd 94 3d 4a c1 12 3e 6f a3 c7 3e 58 96 6c 3c
       0.07262799 0.14331546 0.38991877 0.014440142
000020 b9 37 a1 3d 11 59 bd 3e 3f 9a 4d 3c 2c 92 f7 3f
       0.078719564 0.36982015 0.012548982 1.9341483
000030 c3 2c fa 3d d2 47 ce 3e e5 b1 61 3d bd 4a 5e 3e
       0.12215569 0.4028917 0.055101294 0.21708198
000040 de 96 87 3e f1 3d 2f 3d c4 dc 90 3e 08 09 4a 3e
       0.2648229 0.04278368 0.2829343 0.19730008
000050 24 4c a5 3e 55 62 ad 3e 1f 78 3e 3d 11 7e 4f 3d
       0.32284653 0.33864084 0.046501275 0.050657336
000060 6d 17 80 3d ff e0 9d 3e ab 3e ff 3e ec 1d 06 3e
       0.06254468 0.3083572 0.498525 0.13097352
000070 47 f5 99 3e 36 ce a5 3e d6 2f e8 3d c9 67 a2 3d
       0.30069944 0.3238389 0.11337249 0.07929952
000080 57 75 da 3d 8d 57 5a 3d 9c 53 c5 3d b9 36 06 3f
       0.10666912 0.05330615 0.09635088 0.5242725
000090 7a a6 30 3e 38 78 90 3d aa 23 08 3e f0 37 81 3e
       0.17251006 0.0705418 0.13294855 0.2523799
0000a0 32 4d 2a 40 a3 94 6a 3e b3 ed ee 3e a6 8e 0a 3e
       2.6609616 0.22908263 0.46665725 0.13530979
0000b0 c8 d2 fc 3c 4e e7 a5 3d 19 fc 09 3d e7 7b a5 3d
       0.030862227 0.081007585 0.033687685 0.08080273
0000c0 f5 73 c6 3e 63 51 30 3d 97 95 d2 3d 57 83 9b 3e
       0.38760343 0.043046366 0.10282438 0.30373642
0000d0 ae e4 2b 3d 62 51 22 3d d3 1f c3 3d ff 79 0d 3e
       0.041966133 0.039628394 0.09527554 0.13816069
0000e0 e3 58 38 3e 71 9b 2d 3e c0 2e 17 3f bb df ef 3d
       0.18002658 0.16953827 0.5905571 0.11712595
0000f0 e4 ff 0a 3e 6e f1 a5 3c 6b 8d f1 3f b6 14 c9 3d
       0.13574177 0.020256724 1.8871282 0.098184034
000100 65 a2 b1 3e de bd 3a 3f 74 48 be 3e c0 cb 9b 3d
       0.3469421 0.72945964 0.37164652 0.076072216
000110 09 3a 14 3f dc f9 52 3c 17 35 46 3c 50 c2 62 3c
       0.57901055 0.012876954 0.012097619 0.013840273
000120 77 22 6c 3d 31 48 9f 3e a9 46 92 3c 39 0d e5 3d
       0.057650056 0.31109765 0.017855959 0.11184163
000130 99 29 af 3d b0 e5 42 3e e5 47 08 3d c7 bf 21 3f
       0.08552856 0.19032931 0.03327169 0.63183254
000140 23 2e a9 3d b8 0f 9f 3c 00 d0 9f 3e 61 30 93 3d
       0.08260753 0.019416675 0.3121338 0.07186962
000150 5a 98 a3 3f 69 ac 50 3e 44 d9 75 3d 75 de 2f 3d
       1.2780869 0.2037827 0.060021654 0.04293676
000160 f3 d0 04 3e 69 99 17 3e bc e8 81 3e b5 f0 43 3e
       0.12970333 0.14804615 0.25372875 0.19134791
000170 29 c8 09 3e 27 d1 3e 3e f1 34 38 3d 30 01 56 3d
       0.13455261 0.18634473 0.044972364 0.052247226
000180 21 8b 28 3e d9 e9 13 40 c1 df 27 3e 9f 10 2b 3d
       0.16459323 2.311148 0.16393949 0.041763898
000190 e4 7c a5 3d 1f dd b1 3f af 14 ff 3d b4 f8 9f 3d
       0.080804616 1.3895606 0.12455117 0.07811108
0001a0 88 78 a2 3d a6 cc 01 3e 5c e1 11 3e a5 0a 8e 3d
       0.07933146 0.12675723 0.14246124 0.06935624
0001b0 6f 7c 2d 3e 27 dc 4d 3c 00 4e 67 3e 5b b0 d4 3d
       0.16941999 0.012564695 0.22588348 0.103852
0001c0 d9 fc d2 3c e9 ed dd 3d b6 ff 95 3e 8b 89 03 3e
       0.025755333 0.108363934 0.29296654 0.12845437
0001d0 57 26 8e 3d db 7d ee 3e 68 f9 af 3d b9 4a 92 3d
       0.069409065 0.46580395 0.08592492 0.071431585
0001e0 0e 75 f4 3e c3 0f 47 3e a3 a5 00 3e ab b4 e6 3d
       0.47745556 0.19439606 0.12563185 0.112649284
0001f0 78 f8 ea 3d 23 f4 61 3d 5b a6 0e 3d 40 ef ff 3d
       0.11473173 0.055164468 0.034826618 0.12496805
